app/mnist_mod.pth (torch, 320433 bytes, 4 tensors)

l1.weight f4 [100, 784]
0.027330052 -0.007028822 -0.011053827 0.0189901 -0.029192198 -0.00875923 -0.016947266 0.03105231
-0.019632757 -0.02214227 -0.032526933 -0.024790972 0.05866306 -0.009196496 -0.022455504 0.014842102
0.02540636 0.031165008 -0.003973592 -0.01177993 0.033591244 -0.032804422 0.015935186 0.02851833
-0.01938837 -0.014441328 0.0067016333 0.007514674 -0.016425109 0.010437876 0.03156172 0.025649283
0.016658427 -0.0005518305 0.0018093385 -0.000394572 0.03655987 0.014849856 0.039269008 0.037526388
0.04936677 0.041092306 0.016301455 0.050734848 0.0551055 0.051452007 -0.04367975 0.03045309
-0.023385303 -0.0061873044 0.03405244 0.034776885 -0.024973342 -0.012665093 0.029722575 -0.0060209166
0.034947645 0.020767018 0.007173691 0.03868034 -0.042733185 -0.02888917 -0.0038764603 0.03228969
0.0061054653 0.03286583 0.010438998 0.049234275 0.09400655 0.08175418 0.033803534 0.10686158
0.08021201 0.10279007 0.042470973 -0.00088288815 0.00621261 -0.051300094 -0.026312785 0.015640656
0.039910883 -0.0020029005 -0.01744878 0.025565881 -0.019615136 0.0045182183 0.07593832 0.03814377
-0.018791255 -0.008324357 0.0052184924 0.050432842 0.0377657 0.10914883 0.07954316 0.057670463
0.096472085 0.14785461 0.10590294 0.12695986 0.07764042 0.02218779 0.00736487 0.021849299
-0.018325208 0.04432571 0.00616319 -0.048501093 0.011155415 0.028851105 -0.03872385 -0.027077625
-0.022359397 -0.00463801 -0.0026138786 0.004775647 -0.025014907 0.036000714 0.002824671 -0.010840022
0.033136506 0.07600636 0.12455505 0.12013286 0.094059005 0.041274272 0.095205866 0.11246589
0.11286397 0.10112388 0.08556516 0.07600663 0.031465057 0.015880616 -0.0061088004 0.04517046
-0.014399218 0.015653964 0.060689528 -0.014859763 0.031836633 0.01766891 0.0011668897 0.0345412
-0.03769766 -0.010518139 -0.0073367497 0.03201448 0.010762735 0.007079571 0.062104065 0.020460723
-0.007835271 0.03809634 0.016523426 0.04353928 0.06740349 0.058278218 0.07057842 0.040646236
0.058441464 0.06585846 0.09383904 0.052502383 0.049414005 0.041840825 0.066971265 -0.014145384
0.018988166 0.0010372953 -0.0012163777 -0.027104072 0.01592914 -0.009775165 0.0037124944 0.008225256
0.008945574 0.047031075 -0.0016898449 -0.0053116716 -0.013049854 -0.017670363 -0.010643441 -0.02924381
-0.02270199 0.04188548 0.02331361 0.05231286 0.045168694 0.040933378 0.042508274 0.054108154
0.10467403 0.08399815 0.074728034 -0.0051858304 0.028125705 0.09478287 -0.0063287946 -0.05852295
0.038489573 0.043803174 -0.021010114 0.0013379419 0.0026338203 -0.023737479 0.059026998 0.06257191
0.06372113 0.05007268 0.051665977 -0.010178443 -0.01985344 0.028077457 0.031521562 0.046723016
0.09717887 0.029299168 0.09044151 0.10170004 0.07818728 0.10792163 0.08490837 0.04031313
0.00981343 0.0325097 -0.035622116 -0.018715583 0.045446392 0.018466717 -0.008392099 0.014847747
0.0029709195 0.048254754 0.03497428 0.028490765 0.041777886 0.03906508 0.044195753 0.018380953
0.024823576 0.06328502 0.029684873 0.050747637 0.062456384 0.07712439 0.036068805 0.047612745
0.07819537 0.1190515 0.033922546 0.00881699 -0.0043387273 -0.032574415 0.0017596628 0.037298083
00000000: 46e3 df3c 0852 e6bb 1c1b 35bc 2091 9b3c
00000010: 7a24 efbc e082 0fbc fed4 8abc 6a61 fe3c
00000020: e0d4 a0bc b563 b5bc f63a 05bd 7016 cbbc
00000030: ad48 703d e6ac 16bc 9bf4 b7bc 4a2c 733c
00000040: 0021 d03c c24d ff3c e834 82bb 9c00 41bc
00000050: f996 093d ee5d 06bd 828a 823c 469f e93c
00000060: 5cd4 9ebc 529b 6cbc 6099 db3b a83d f63b
00000070: f38d 86bc a003 2b3c dd46 013d 721e d23c
00000080: 4177 883c b8a8 10ba 5327 ed3a 8fde ceb9
00000090: cdbf 153d cf4c 733c 8ad8 203d 45b5 193d
000000a0: cf34 4a3d 6850 283d a18a 853c 58cf 4f3d
000000b0: 4eb6 613d 57bf 523d 8ae9 32bd c278 f93c
000000c0: 8992 bfbc dfbe cabb 927a 0b3d 3572 0e3d
000000d0: e594 ccbc 4081 4fbc c27c f33c 1c4b c5bb
000000e0: 4325 0f3d 981f aa3c 4811 eb3b 476f 1e3d
000000f0: fe08 2fbd fba8 ecbc 360c 7ebb 3242 043d
00000100: 5b10 c83b 529e 063d 5508 2b3c e1a9 493d
00000110: 8286 c03d bc6e a73d 9375 0a3d 3eda da3d
00000120: 3246 a43d 9a83 d23d 0bf6 2d3d 9f71 67ba
00000130: 2693 cb3b 0c20 52bd e98d d7bc d520 803c
00000140: 9879 233d 1843 03bb bef0 8ebc 8a6f d13c
00000150: ecaf a0bc 900d 943b 8d85 9b3d a43c 1c3d
00000160: 1ef0 99bc e262 08bc e3ff aa3b ab92 4e3d
00000170: 35b0 1a3d 6c89 df3d 86e7 a23d dd37 6c3d
00000180: 2893 c53d 3367 173e a4e3 d83d c401 023e
00000190: f101 9f3d 2bc3 b53c 0255 f13b 4dfd b23c
000001a0: bf1e 96bc e08e 353d 96f4 c93b 15a9 46bd
000001b0: 34c5 363c 2759 ec3c e69c 1ebd e5d1 ddbc
000001c0: 0e2b b7bc 73fa 97bb 9b4d 2bbb 087d 9c3b
000001d0: 10ec ccbc 7c75 133d 1e1e 393b 599a 31bc
000001e0: 25ba 073d 39a9 9b3d b816 ff3d 3808 f63d
000001f0: 02a2 c03d 360f 293d 4bfb c23d 8454 e63d
00000200: 3a25 e73d 091a cf3d c93c af3d 5da9 9b3d
00000210: 81e1 003d 1118 823c 552c c8bb a904 393d
00000220: b3ea 6bbc be3c 803c 9595 783d 5d76 73bc
00000230: 2167 023d 64be 903c 52f2 983a 137b 0d3d
00000240: dd68 1abd 4654 2cbc 1e69 f0bb 9e21 033d
00000250: 2f56 303c bffb e73b d560 7e3d 3f9d a73c
00000260: 825f 00bc e80a 1c3d 235c 873c 3e56 323d
00000270: d70a 8a3d 24b5 6e3d 6b8b 903d ab7c 263d
00000280: 5160 6f3d cde0 863d af2e c03d bd0c 573d
00000290: 5766 4a3d 4961 2b3d 3b28 893d 0ac2 67bc
000002a0: 128d 9b3c dbf5 873a dd6e 9fba 5c09 debc
000002b0: d47d 823c 0328 20bc 524d 733b 39c3 063c
000002c0: 7590 123c a8a3 403d c97d ddba 880d aebb
000002d0: 0ecf 55bc 70c1 90bc d461 2ebc b790 efbc
000002e0: 86f9 b9bc 1c90 2b3d 2ffc be3c 0246 563d
000002f0: cf02 393d c2a9 273d 281d 2e3d 83a0 5d3d
00000300: 565f d63d 3907 ac3d 030b 993d e6ed a9bb
00000310: e167 e63c 851d c23d c761 cfbb c3b5 6fbd
00000320: 3ea7 1d3d f56a 333d 671d acbc e15d af3a
00000330: 2c9c 2c3b 1a75 c2bc 4bc6 713d b425 803d
00000340: 3980 823d 0319 4d3d b49f 533d 7cc3 26bc
00000350: aea3 a2bc b202 e63c c11c 013d a260 3f3d
00000360: b705 c73d cf04 f03c 6639 b93d 1c48 d03d
00000370: a720 a03d 0406 dd3d 71e4 ad3d 611f 253d
00000380: 82c8 203c e428 053d 7fe8 11bd 6c51 99bc
00000390: ff25 3a3d 8347 973c 047f 09bc f743 733c
000003a0: c2b3 423b c7a6 453d 3141 0f3d 7765 e93c
000003b0: 4a1f 2b3d b502 203d 9b06 353d a793 963c
000003c0: d05a cb3c 949b 813d b12d f33c c1dc 4f3d
000003d0: 44d2 7f3d 64f3 9d3d e2bc 133d 9505 433d
000003e0: e524 a03d 46d1 f33d 5ef2 0a3d 2375 103c
000003f0: e22b 8ebb c06c 05bd 7ca4 e63a e0c5 183d

l1.bias f4 [100]
0.114115365 -0.13381335 0.06571706 -0.02747903 0.14729951 -0.052093446 -0.109267764 0.012428351
-0.091744535 0.16863674 0.12426078 -0.057972293 0.026030984 4.2620813e-05 0.07679545 0.1178003
0.02653367 -0.005831527 0.09814277 0.03915936 -0.017337624 -0.0467608 0.09178431 0.01685476
-0.09042349 -0.053860933 -0.039726302 -0.0014811179 -0.044223372 0.06590742 -0.00859795 0.11994492
-0.08728112 -0.22541462 -0.051076002 -0.01693329 0.08225909 0.14837237 -0.0002161834 0.014963172
0.070763744 0.04700805 0.081215695 -0.03723527 0.00087949226 -0.04679047 -0.09778049 0.11529547
0.19844492 0.0709158 0.15865758 -0.08947673 0.0018091038 0.18064526 -0.08891421 0.014605861
0.024602046 0.090837285 0.09598107 0.078476824 -0.120139346 -0.025080282 -0.004144594 -0.034427
0.15142845 -0.04728476 -0.096942656 0.07110517 0.0904891 0.006954335 0.04231005 0.041350845
0.1008586 0.09869299 -0.005653943 0.027481671 -0.10315629 0.09251657 -0.023238445 0.05593486
0.058292843 0.03412762 -0.0030136101 -0.0752813 -0.056865565 0.035622697 -0.06865153 -0.10324886
0.11693789 0.056235414 0.118026294 -0.010654156 0.18672861 0.124950714 0.1260846 -0.034213822
0.15643162 0.018728415 0.007947668 0.060168866
00000000: 51b5 e93d 5e06 09be aa96 863d b41b e1bc
00000010: afd5 163e f05f 55bd c7c7 dfbd 48a0 4b3c
00000020: 8fe4 bbbd 1caf 2c3e 707c fe3d 5b74 6dbd
00000030: ee3e d53c c0c3 3238 ef46 9d3d 4941 f13d
00000040: 245d d93c 6516 bfbb 14ff c83d 9165 203d
00000050: a207 8ebc 4188 3fbd 6af9 bb3d fe12 8a3c
00000060: f32f b9bd 489d 5cbd 0cb8 22bd 1222 c2ba
00000070: 9123 35bd 78fa 863d 6bde 0cbc afa5 f53d
00000080: 72c0 b2bd 17d3 66be 1235 51bd afb7 8abc
00000090: 7477 a83d edee 173e 4aaf 62b9 1828 753c
000000a0: 95ec 903d 838b 403d 6a54 a63d 0384 18bd
000000b0: ba8d 663a 5da7 3fbd 2341 c8bd 0820 ec3d
000000c0: 2535 4b3e 4e3c 913d 2277 223e 933f b7bd
000000d0: 731f ed3a 12fb 383e a718 b6bd 6c4d 6f3c
000000e0: 3b8a c93c e608 ba3d b991 c43d 75b8 a03d
000000f0: 9e0b f6bd 2a75 cdbc 60cf 87bb 5303 0dbd
00000100: 0f10 1b3e aaad 41bd df89 c6bd 969f 913d
00000110: 5952 b93d 31e1 e33b 4e4d 2d3d 815f 293d
00000120: f48e ce3d 8d1f ca3d b644 b9bb 3e21 e13c
00000130: 9b43 d3bd 5479 bd3d 8d5e bebc f41b 653d
00000140: 7ac4 6e3d 67c9 0b3d fd7f 45bb 152d 9abd
00000150: deeb 68bd 1be9 113d 2c99 8cbd 2374 d3bd
00000160: 227d ef3d 1b57 663d c5b7 f13d c58e 2ebc
00000170: c935 3f3e 29e6 ff3d 521c 013e cb23 0cbd
00000180: 9c2f 203e 556c 993c f036 023c a173 763d

l2.weight f4 [10, 100]
-0.10261464 -0.17560124 -0.17191921 -0.012647204 -0.23990828 0.13405412 0.1497977 0.0026703652
-0.14465213 0.11433482 -0.16879907 -0.12373312 0.11953264 -0.2667418 0.030479586 -0.27321917
-0.18942106 -0.10783545 -0.077502675 -0.17906891 0.12819387 -0.048348997 -0.091409385 -0.013453285
0.15185788 0.16488573 0.2057595 0.0490969 0.059426222 0.22062607 0.050149154 -0.0981279
0.080593884 0.09325565 -0.012376244 0.09631968 0.07198654 -0.21139656 -0.12346243 -0.08208875
0.06335276 -0.05525427 0.013561161 0.0794441 0.0126169445 0.13013661 0.04150259 -0.21684097
-0.045436256 -0.14689787 -0.19273053 0.18510242 -0.11963979 -0.0426689 -0.1618303 0.084189795
-0.29104078 0.15513177 -0.22545329 0.0046140715 -0.1200313 -0.26408035 0.0016329254 -0.010530085
-0.23649159 -0.05623466 -0.17496465 0.05228845 0.16089156 -0.21939157 0.066977166 -0.17795935
0.16803795 -0.23980382 0.14856184 0.0073543303 -0.06905936 0.1111288 0.036449924 0.10355232
0.055485178 0.15385444 -0.032262456 -0.09261738 -0.06967395 -0.13400121 -0.14334774 -0.108338796
-0.052377205 -0.286384 0.17998655 0.09828576 -0.17896706 -0.17526692 -0.19078127 -0.12067025
0.11943055 0.12747118 -0.2964548 -0.17047624 0.12434373 -0.02849167 0.14274251 -0.009355493
0.03917701 -0.10695372 -0.21470106 -0.21190761 -0.21631551 -0.006845283 -0.112666234 -0.03222332
-0.007942654 -0.15024799 0.17585571 0.071715616 0.024445567 -0.14249991 -0.29597086 0.065173
0.14673533 0.02977478 0.19637685 -0.17043151 -0.041181218 -0.05050916 -0.20807216 -0.15258507
-0.17254102 0.14757934 -0.060995393 -0.14068939 -0.22939184 -0.2246803 -0.16996872 0.3271928
-0.09652402 0.015465589 -0.1756143 0.016611762 0.039164733 -0.21457171 0.021697504 -0.22270368
-0.0058155945 -0.061956767 -0.17833978 0.13303773 -0.019426385 0.16835083 -0.10385082 -0.1981473
0.066441305 0.13223056 -0.24368258 -0.14103696 0.10395171 -0.0979574 -0.23590173 -0.05205377
-0.09207903 0.11106733 0.16135672 -0.08475297 -0.1397332 -0.23837337 0.13231114 0.15511288
0.075749286 0.048164517 0.13030434 0.12787163 -0.07023222 0.13292144 -0.24054945 0.009458881
0.14279568 -0.07171669 0.044685733 -0.21310067 -0.22053826 -0.24257259 -0.23578137 0.12791792
0.031497404 0.15907504 -0.17462344 -0.14797622 0.12552398 0.1662865 0.17277406 -0.2465355
0.10990838 0.16198279 0.18297127 0.16651858 0.18401548 -0.12712008 0.33678815 -0.20275936
0.11045988 -0.08325296 0.1505301 -0.004821514 -0.14664188 0.062238384 -0.14470935 -0.033458605
0.0060489853 0.1895515 -0.114279665 0.12196527 0.17106748 -0.16999666 -0.0117286015 -0.14019221
0.17354712 0.20317443 0.18404946 0.055022076 0.008841779 -0.15745637 0.27342403 -0.085678376
0.03405818 0.1075779 -0.5172165 0.11235773 0.02142873 -0.1240479 -0.019488923 0.11465672
-0.12932065 -0.008333466 -0.10392949 0.12913436 -0.14003631 -0.05949857 0.09772416 -0.033036146
0.03186577 0.05944693 -0.06932131 -0.08797624 0.015852377 0.14259918 0.16034308 0.047187626
-0.031266525 0.15652336 0.04623101 0.104167536 0.2260983 -0.46746418 0.1326195 -0.0334295
00000000: a027 d2bd d0d0 33be 970b 30be 3836 4fbc
00000010: 84aa 75be 7c45 093e 9164 193e 4b01 2f3b
00000020: b01f 14be 6028 ea3d aad9 2cbe ca67 fdbd
00000030: 87cd f43d 6292 88be 53b0 f93c 62e3 8bbe
00000040: 98f7 41be d5d8 dcbd b9b9 9ebd d75d 37be
00000050: 4145 033e 9909 46bd d834 bbbd 2b6b 5cbc
00000060: a280 1b3e ced7 283e 9eb2 523e d519 493d
00000070: e968 733d cdeb 613e 3369 4d3d 48f7 c8bd
00000080: 680e a53d d1fc be3d bbc5 4abc 4143 c53d
00000090: ae6d 933d 5778 58be dfd9 fcbd 261e a8bd
000000a0: 18bf 813d 4d52 62bd a22f 5e3c 97b3 a23d
000000b0: 4db7 4e3c 8842 053e 9ffe 293d 8f0b 5ebe
000000c0: 5e1b 3abd 656c 16be 275b 45be 7d8b 3d3e
000000d0: b505 f5bd 96c5 2ebd d8b6 25be b36b ac3d
000000e0: 4c03 95be ddda 1e3e 3add 66be a331 973b
000000f0: f8d2 f5bd 8a35 87be e207 d63a 6186 2cbc
00000100: da2a 72be 5156 66bd ef29 33be 6a2c 563d
00000110: c2c0 243e 2fa8 60be 532b 893d fa3a 36be
00000120: 2412 2c3e 228f 75be 9820 183e 98fc f03b
00000130: fe6e 8dbd 7f97 e33d 844c 153d 3d13 d43d
00000140: 6d44 633d 058c 1d3e a325 04bd 2eae bdbd
00000150: 37b1 8ebd 9d37 09be c0c9 12be bbe0 ddbd
00000160: 7b89 56bd eca0 92be 654e 383e 0b4a c93d
00000170: 2443 37be 2c79 33be 2a5c 43be f721 f7bd
00000180: 0198 f43d ce87 023e ecc8 97be 5391 2ebe
00000190: eda7 fe3d 5d67 e9bc 182b 123e c847 19bc
000001a0: 1378 203d 8d0a dbbd 98da 5bbe 4ffe 58be
000001b0: d081 5dbe 654e e0bb 8ebd e6bd 9afc 03bd
000001c0: e821 02bc 9cda 19be 8513 343e a3df 923d
000001d0: 1242 c83c 7feb 11be 7e89 97be 6c79 853d
000001e0: c941 163e 3dea f33c 0317 493e 9985 2ebe
000001f0: a3ad 28bd b1e2 4ebd de10 55be 433f 1cbe
00000200: 98ae 30be 0a1f 173e 4ed6 79bd e110 10be
00000210: b2e5 6abe 9812 66be 480c 2ebe d185 a73e
00000220: 63ae c5bd 6263 7d3c 3cd4 33be 6415 883c
00000230: 336b 203d b0b8 5bbe f7be b13c 6f0c 64be
00000240: be90 bebb 61c6 7dbd b49e 36be 0b3b 083e
00000250: 1524 9fbc 2964 2c3e bdaf d4bd 20e7 4abe
00000260: 6112 883d 7367 073e ed87 79be fe6b 10be
00000270: a2e4 d43d e49d c8bd 3990 71be 5536 55bd
00000280: ee93 bcbd 4577 e33d b23a 253e f792 adbd
00000290: 3816 0fbe 2618 74be 927c 073e e9d5 1e3e
000002a0: 7122 9b3d 2848 453d 806e 053e c8f0 023e
000002b0: e9d5 8fbd 8f1c 083e 9852 76be 6cf9 1a3c
000002c0: 0839 123e 33e0 92bd 6308 373d 1037 5abe
000002d0: c8d4 61be f364 78be ac70 71be eafc 023e
000002e0: 6c03 013d 91e4 223e 7dd0 32be 1487 17be
000002f0: 5c89 003e 0247 2a3e afeb 303e cd73 7cbe
00000300: a517 e13d d1de 253e d25c 3b3e d983 2a3e
00000310: 8e6e 3c3e c42b 02be 7f6f ac3e 26a0 4fbe
00000320: ca38 e23d 8780 aabd 9024 1a3e cafd 9dbb
00000330: 4a29 16be aded 7e3d b02e 14be e40b 09bd
00000340: 9136 c63b ca19 423e 750b eabd edc8 f93d
00000350: 502c 2f3e 9b13 2ebe 5229 40bc 8c8e 0fbe
00000360: 56b6 313e f50c 503e 7677 3c3e d45e 613d
00000370: 1cdd 103c 3e3c 21be 3cfe 8b3e 2578 afbd
00000380: 9780 0b3d cd51 dc3d 4d68 04bf cf1b e63d
00000390: 4e8b af3c d30c febd 3ca7 9fbc 24d1 ea3d
000003a0: a26c 04be 1789 08bc fcd8 d4bd cc3b 043e
000003b0: ae65 0fbe c6b4 73bd 9b23 c83d e950 07bd
000003c0: af85 023d a07e 733d 55f8 8dbd e32c b4bd
000003d0: d8dc 813c 8505 123e fa30 243e d047 413d
000003e0: 5411 00bd a947 203e ba5c 3d3d ca55 d53d
000003f0: 5086 673e 7757 efbe 68cd 073e 5fed 08bd

l2.bias f4 [10]
0.006694562 0.06892783 0.032841533 -0.07727615 0.12756479 0.14686054 0.021317488 0.041877475
-0.0377846 -0.091156654
00000000: 0e5e db3b 092a 8d3d d884 063d f542 9ebd
00000010: 58a0 023e 9c62 163e 03a2 ae3c b787 2b3d
00000020: 06c4 1abd 57b0 babd
